optimized_cost_model.pth (torch, 17162 bytes, 5 tensors)

network.0.weight f4 [64, 22]
00000000: 3a41 3bbd 6680 e93e 4664 26be baaf c4be
00000010: cf5c b3be 7273 d0be b94c b63e 81eb a6be
00000020: 131f fcbd 9c53 b8bd 7663 ca3e 95ce 1d3e
00000030: 4a00 b23d eda1 5fbd 44c2 233e 62da 6f3e
00000040: 7d2e 943d e6c5 413e 32c6 b83d fc97 09bd
00000050: 0aaa 65be 29b5 b2bd c555 783e a644 043f
00000060: d53a e83e 837d 9b3e 9e7e dfbd 2f52 193f
00000070: e5a1 203f e790 e53e 223a a33e 19de 23bc
00000080: 8b5d 953e 0efa 89bd ac1b 933e d6a2 f0bc
00000090: 3033 993b 9438 a23d f814 d03e 524b a53e
000000a0: 94dd b53e 7a0a 403e 43ed 803e b95d 833e
000000b0: 69c0 f83e 0e48 bfbe 9388 d93e a912 6c3e
000000c0: 2495 46be f4b2 f53e 2e86 c43e 01e3 fd3e
000000d0: 1772 043e 6baf e13d 8c44 813e 48fa 7b3e
000000e0: e329 5fbd 9a6c 733e a2e7 4a3e e37a ac3e
000000f0: affa f73d f0e9 2d3e 55d5 563e 5552 3ebd
00000100: 1fc8 953d d3f1 8a3e 6c65 473e 1217 a83e
00000110: ad22 d63e f3b0 f13e 9c9c aabe c694 5fbf
00000120: 358c b53d 4b93 9a3e 14b6 8d3b 4e6b 4c3e
00000130: 776d 8e3e ccf9 513e c008 673e 37c9 a13e
00000140: 6e3a ca3e 9148 093e 1f9b 323e 2731 2e3e
00000150: 856f 0f3e 5ce5 6b3e d796 8c3e 1340 6b3d
00000160: dfb5 e33e 2425 ea3e 435e 0bbf c7c0 703e
00000170: c4bd d8be abf5 523f 7daa 0c3e 4c82 3bbf
00000180: 506f 88bd a1e5 243e fe47 cb3e f911 0d3e
00000190: 141e 843e a441 703e a520 473e b288 0e3e
000001a0: f21a ac3e efb4 bb3e 3abf 643e 26a5 9a3e
000001b0: 3763 cd3d bcf6 263e 9b43 d73e 2e14 873e
000001c0: eec0 0abf 9eb7 c03e 7af5 09be 3159 cbbe
000001d0: 3bf1 e1be e616 11bf 6eb0 45bc ba0c 993e
000001e0: a3d2 3a3c ae4c 4e3e d76d 9b3e 3d8b 7e3a
000001f0: 8211 283d 2a7a 7f3e 6769 5a3e 34e8 273e
00000200: 8c2d 523e ac75 3a3e 46c7 bebd efd9 d13a
00000210: deee c43e 1658 0fbf dae4 e0be 2458 113f
00000220: 2528 563f 4096 05bf 2f04 f2be 21dc 9a3e
00000230: cee9 40be 6b07 913e 8563 c13e dc3e 483e
00000240: 5650 5b3e 15bb b43d 0456 973e e607 983d
00000250: e40d b63d b032 ac3e d2bf 98bb 665c b53e
00000260: 3219 3a3e f085 8b3d f5f0 ec3e fa68 3dbf
00000270: aa3a 733e a40e ed3e fa12 85bc 3091 3dbf
00000280: 809e e8be bd09 12bf 8f93 9fbd 7003 3dbd
00000290: 7094 cf3d f253 6b3e d324 dd3d efb5 1ebd
000002a0: fe39 b63e bc83 9d3e e0ab ca3d 7f6d ac3e
000002b0: b40f 433e c258 943e 6110 823e 7333 033c
000002c0: 5f24 d53e 8540 923e e3d7 d03e fc0d c23e
000002d0: 95d4 cd3c b8c2 b53e e47e 17be 8ab5 fe3e
000002e0: 1d62 423e 63e0 413d 822b 493e 3e2f 643e
000002f0: 2874 6d3e fdac f63d f4ab 883d 5f31 953e
00000300: 2eb5 c73e a24c c43d a483 22bc c90d 6a3e
00000310: 186a 823e a18a c73d 1c94 8e3e c6db 3abe
00000320: 5724 df3e 72a5 ee3e 0516 833c 30d9 f43e
00000330: ccc1 cdbe 8706 a0be e492 35bd f314 913e
00000340: 855c 2a3e 9912 2c3d c790 613e be14 413d
00000350: 05a0 9a3e b037 313e 6417 4bbd 4886 313e
00000360: b85e 3e3e c882 693e 1bc0 923d 004a 343e
00000370: 3313 003f c112 18bf 10a0 933e b69b ed3e
00000380: f536 2f3f 2603 e73d 5b2e babe 1e5f 963e
00000390: 5cdb c03d 37c3 503e 60ac 1d3e 7919 afbd
000003a0: 63e7 80bd 2e27 eeb9 2631 8d3e 39d7 76bc
000003b0: 73e1 f53d e313 713e ed1d 5abd 8bac a53d
000003c0: 9764 4f3e e4f1 303e ddf4 a63e c07e fbbe
000003d0: 3a32 7d3e cede f23e 1c07 8cbe 66e1 583d
000003e0: 083e 4e3d 18ae 013f 8bb9 303e 17b7 fc3d
000003f0: b5a7 453e 6b51 9a3e 157f 623d 21a9 0d3e
-0.0457165 0.45605773 -0.16249189 -0.3841532 -0.35031745 -0.40713078 0.3560541 -0.3260155
-0.123106144 -0.09000322 0.39529008 0.15410836 0.086914614 -0.054597784 0.15992075 0.2342315
0.072354294 0.18923149 0.09022178 -0.03359221 -0.22428146 -0.0872596 0.24251468 0.5166725
0.45357385 0.30369195 -0.10912822 0.5989103 0.6274703 0.44837114 0.3188029 -0.010001683
0.2917293 -0.06737147 0.2873205 -0.029374521 0.0046752915 0.07920948 0.40640998 0.32284027
0.35520613 0.18753996 0.25181016 0.25657442 0.48584297 -0.3735966 0.4248701 0.23053993
-0.1939283 0.47988093 0.3838362 0.49587253 0.12934147 0.110197864 0.2524761 0.24607193
-0.054483306 0.23771897 0.19814923 0.33687505 0.12108361 0.16983771 0.20979817 -0.046465237
0.07313561 0.27137622 0.19472283 0.328301 0.4182333 0.47205314 -0.33322608 -0.87336385
0.08864633 0.301905 0.004324684 0.19962808 0.2781789 0.20505446 0.22561932 0.31598827
0.39497703 0.13406588 0.17441987 0.17010938 0.14007385 0.23036712 0.27458832 0.057434153
0.44474694 0.4573146 -0.54440707 0.23511039 -0.4233228 0.8240611 0.13736911 -0.7324569
-0.06661856 0.16103221 0.39703363 0.13776387 0.25804198 0.2346254 0.19446047 0.13919333
0.33614308 0.3666148 0.22338572 0.30204123 0.10028689 0.16305059 0.42043766 0.26382583
-0.5420064 0.3764009 -0.13472548 -0.39716485 -0.44129357 -0.56675565 -0.01206599 0.29892522
0.011402759 0.20146438 0.3035724 0.0009710079 0.04103232 0.24948946 0.2132927 0.16397172
0.20525187 0.18208951 -0.09315352 0.0016010384 0.3846349 -0.55993783 -0.439246 0.56775117
0.83655006 -0.5218239 -0.47268817 0.3024607 -0.1883919 0.28325972 0.3777124 0.19555229
0.21417364 0.088247456 0.29557812 0.074233815 0.08889368 0.33632421 -0.0046615386 0.35422057
0.18173674 0.06812656 0.46277586 -0.73988307 0.23752847 0.46300232 -0.0162444 -0.74049664
-0.45433426 -0.5704611 -0.077918164 -0.046145856 0.10135734 0.22981241 0.10798039 -0.038747724
0.3559112 0.30764568 0.09896064 0.3367729 0.19048959 0.28973967 0.2540312 0.008007872
0.4162931 0.2856485 0.40789708 0.37901294 0.025125781 0.3550012 -0.14794499 0.49747878
0.1898274 0.047333132 0.19645503 0.22283646 0.23188841 0.12044714 0.066734225 0.2913923
0.39005417 0.09584929 -0.009919081 0.22856821 0.25471568 0.09743238 0.27847373 -0.182479
0.43582413 0.466106 0.01600171 0.4782195 -0.40186918 -0.3125498 -0.04432954 0.28336295
0.16636856 0.042009924 0.22027884 0.047138922 0.3020021 0.173064 -0.049582854 0.1733638
0.1859082 0.22803795 0.071655475 0.17606354 0.50029296 -0.59403616 0.28833055 0.4640786
0.6844323 0.112798974 -0.3636349 0.29369444 0.094168395 0.20386969 0.15397787 -0.085497804
-0.062941335 -0.0004542409 0.2757656 -0.0150659615 0.12005892 0.23542742 -0.053251196 0.080895506
0.20253216 0.17279774 0.3260869 -0.4912014 0.24726191 0.4743561 -0.27349174 0.05294933
0.050352126 0.5065627 0.17258279 0.12339609 0.19302256 0.30140242 0.055296976 0.13834049

network.0.bias f4 [64]
00000000: 99e0 f13e e1bc 4a3e d08c 543e 5b4a df3e
00000010: eac5 203e 643c 0b3f 6dde 603e ee57 b33e
00000020: edeb 023f 1a20 0f3f 630b 683e 9893 073f
00000030: 13a6 9c3e 75e1 d83e 93bb c23e dd2c eb3e
00000040: 0178 c63e 13ac 2a3e f531 a43e 5cde 0d3f
00000050: 14ee 0b3f dc28 c43e dcd3 143f 4d4e ad3e
00000060: b7e1 da3e cd94 973e 9ef5 ac3e 8720 ad3e
00000070: 3f8f d53e 961b 0d3f 324e 633e 48c8 dc3e
00000080: 0ffe 003f 0a2f 6d3e 0079 233e 98c0 623e
00000090: 9c37 f83e 6a86 db3e fd76 913e 2e02 ee3e
000000a0: 635d 5d3e 1322 843e b504 8c3e 5065 073f
000000b0: 0b2c ce3e c9ec 4f3e 55a6 a63e 796b 533e
000000c0: 4838 e53e 0088 eb3e cd73 a53e 9f79 d63e
000000d0: 2cd8 873e 5ff8 cf3e 37c1 e83e 8f8c 6d3e
000000e0: 9a6a 723e 6326 973e 6886 873e c3bf 373e
000000f0: 2467 fe3e 3bac 293e cb7c 413e ac98 c03e
0.47241667 0.19798614 0.2075684 0.43611416 0.15700498 0.54389024 0.21959849 0.35028023
0.51141244 0.5590836 0.22660594 0.52959585 0.30595455 0.4235951 0.38033733 0.45932665
0.3876343 0.16667204 0.32069364 0.5541742 0.54660153 0.38312423 0.5813577 0.338488
0.42750332 0.29605713 0.3378114 0.3381388 0.4171085 0.5512022 0.22197798 0.43121552
0.5038766 0.23162475 0.15964127 0.22143781 0.48479927 0.42875987 0.28411093 0.46486038
0.21617655 0.25807247 0.2734734 0.52888966 0.40267977 0.2030517 0.32548776 0.20646466
0.44769502 0.46002197 0.3231491 0.41889665 0.26532114 0.4061918 0.4545991 0.2319815
0.23673478 0.29521474 0.2646973 0.17944245 0.49688065 0.16569607 0.18895261 0.3761648

network.2.weight f4 [32, 64]
00000000: a492 e13d 18b9 353d 5140 9fbd bb98 163d
00000010: 84cd bcbd 8d36 09be 3dc7 2dbd 745b a63c
00000020: 1bb9 a9bc 9e93 79bd f396 d0bd e40f c33d
00000030: 06aa e7bc 9951 8b3c 4bd1 b2bc 5e31 ad3c
00000040: 4b8a 05be e4fc 1f3d 17f9 93bd 38c7 763d
00000050: 3d14 11bd f701 05be b758 21bd f580 2cbd
00000060: fc38 4a3c aed1 38ba 0390 c8bb 5e6b 08bd
00000070: 8604 8a3d 499b 44bd 5227 fe3b 2158 eebd
00000080: 1f06 b1bd ecd0 183c 9c52 d5bd 12b7 04bd
00000090: 5598 b73d 1e9b a0bc 0cec 44bd e2eb 14be
000000a0: 092d bfbd 1ee6 873d f3b2 a73d 4bc8 d0bd
000000b0: 3fed 4dbd 593b 93bb cd42 18be c0ea ac3d
000000c0: a0f9 60bd 49f7 ddbd e31e 07be faa3 1cbd
000000d0: 1e97 613d 3472 68bc 9a1b 81bd 206d 1fbd
000000e0: c524 98bb d1ef c43d 9e79 fdbd cd73 9bbd
000000f0: 45a2 83bd b4e7 9f3c 5ada 143d e489 ebbd
00000100: 7d26 dd3e d3f8 893e d67f a63e a23b 3f3e
00000110: f65a 5a3e 3d35 b73e 1730 5d3e e729 973e
00000120: d622 333e 57c7 623e 2347 543e 68e4 673e
00000130: 597b b43e 382b 603e 802c 753e e995 913e
00000140: b047 1e3e d820 ae3e 15b5 913e d7c2 343e
00000150: 7f5e 693e 903f 1d3e b174 2d3e 0b02 903e
00000160: 3e57 6c3e df74 c43e 7c08 a73e 0ec9 b83e
00000170: 82a3 723e 40ea 943e 9a2d b23e 49f7 7d3e
00000180: 339b c53e 9ac8 563e 89f9 ea3d 141c 643e
00000190: ae3d 5f3e f34b 8e3e e157 c63e 2488 243e
000001a0: 45e0 193e d094 643e c4b8 ac3e bad0 933e
000001b0: 9b08 563e 0f8c 843e adef b13e 5598 613e
000001c0: aa53 683e c368 853e 6728 db3e 7fa1 7b3e
000001d0: 3c1a 083e 9881 e83d 34a0 bf3e d286 433e
000001e0: 7b53 9e3e 29e1 ba3e 0694 3d3e e9aa ce3d
000001f0: 61ae 933e 8680 9a3e 4995 813e cc2d 9a3e
00000200: a637 d4bd 3542 d8bc 2d14 20bc f46e d2bd
00000210: 018b 78bd 06b0 523b 2221 40bd 6f84 7c3c
00000220: 7be3 0dbe 633c dabd 68f8 87bd 3d9d 053d
00000230: 9045 84bd 7e88 c53c b67d 09bd 2067 833d
00000240: f7fb efbd 5d25 bebd 9d06 11be d6a4 01be
00000250: db00 bb3d 7cd7 c13d d29b 83bc 60fd 11be
00000260: d259 ffbd 6b39 a1bd 92d9 cf3c e0be 32bc
00000270: 29de 943b dcac 05be ccfc fb3c e691 81bd
00000280: d703 f5bd 0165 013d b22a 7cbd 8444 f3bc
00000290: 300e c43d ee21 fbbd 7fe2 833d bdb2 d4bd
000002a0: e747 a13c 973a 0abe 0679 d9bd 0361 733d
000002b0: 5ea7 ae3d f7d9 dfbd 4997 b5bd 54a2 b43c
000002c0: 671b 2fbd c2a8 333d 8107 ef3c 8f84 05be
000002d0: 620d 813d 641a 4b3d 6a14 86bd fefc c239
000002e0: d417 873d 9500 073d a4fb 593d ff3c 68ba
000002f0: 82bf e1bd ba23 9bbd 51fe be3d cd7c 99bc
00000300: 7744 60bd 6479 0abe 35b0 d8bd 3d65 e6bd
00000310: dc6f 08be 485d 46bd b4b5 a93d cce4 a13d
00000320: 6e54 85bd 7481 9abd 536e 80bc 4626 a0bc
00000330: 1184 fc3c 8966 e6bd 0426 c23d a96d 57bc
00000340: a63f f9bc 5421 06bd 8669 2d3d c553 5ebd
00000350: 6a97 143d 03bd be3d 38eb 0dbe d7a1 e43c
00000360: bd0f 983d 697f f93c c814 223d fdc7 bebd
00000370: 4c02 be3d dfb1 92bd e7ed 4aba 29a5 4c3d
00000380: 1420 bebd 5b7d 4dbd 8fa8 b8bd 1b9a 733d
00000390: e679 023b 742e d93b cafe 1cbc 5860 dfbc
000003a0: 7abd e8bd d60a fc3c 4f7d 5cbd 9503 c4bb
000003b0: 974c 973c aa39 c33d be29 05bd 50e2 d23c
000003c0: a75a e9bd a3f6 66bc b4ba 3bbd dbf9 03be
000003d0: e2de c5bd 1b29 923d 31da f0bd 845c 09be
000003e0: c9bc bdbd 3f39 9c3b 7d91 ae3c 33c0 60bd
000003f0: 4783 f1bd 14f6 b83d 3d40 87bd c295 703d
0.110142976 0.044365972 -0.07775939 0.03676675 -0.092188865 -0.13399716 -0.042426337 0.02030728
-0.020718148 -0.060931794 -0.10185041 0.09524515 -0.028279316 0.017006682 -0.021828314 0.021141704
-0.13041036 0.039059535 -0.072252445 0.060248584 -0.03541969 -0.12989031 -0.039391246 -0.04211517
0.012342688 -0.00070502877 -0.006120683 -0.03330552 0.06739144 -0.047999654 0.007756152 -0.11637903
-0.08643746 0.009327155 -0.10416147 -0.032401152 0.08964602 -0.019605216 -0.048076674 -0.14543107
-0.09334762 0.06635688 0.08188429 -0.10194453 -0.050275084 -0.004493159 -0.14869232 0.084432125
-0.05492556 -0.108381815 -0.13195376 -0.038242318 0.055075757 -0.014187384 -0.06304093 -0.03892243
-0.004643055 0.09616054 -0.12376712 -0.075904466 -0.06427435 0.019519664 0.03634105 -0.1150091
0.43193427 0.2694765 0.32519406 0.18675092 0.21323761 0.35782805 0.21600376 0.29524156
0.17493758 0.22146355 0.20730262 0.22645724 0.35250357 0.21891487 0.23942757 0.28434685
0.15457034 0.34009433 0.28458467 0.1765245 0.22789954 0.15356278 0.16939045 0.2812656
0.23080155 0.38370416 0.3262366 0.36090893 0.23695186 0.2908497 0.34800416 0.24801363
0.3859497 0.20974961 0.11473376 0.22276336 0.21800873 0.2779232 0.3873892 0.16067559
0.15026958 0.22322392 0.33734715 0.28870183 0.2090172 0.25888106 0.3475317 0.22030766
0.22688165 0.2605649 0.42804262 0.24573325 0.13291258 0.11352843 0.37426913 0.19094399
0.30923066 0.3649991 0.18513498 0.10091192 0.28843978 0.3017618 0.25309208 0.30113065
-0.103621766 -0.026398757 -0.009770435 -0.10275069 -0.06067944 0.0032148375 -0.046906598 0.015412434
-0.13856308 -0.10656049 -0.066391766 0.032620657 -0.064585805 0.024112936 -0.033567153 0.06416154
-0.1171798 -0.0928447 -0.14162679 -0.12660536 0.091310225 0.094649285 -0.016065512 -0.14256811
-0.12468304 -0.0787228 0.0253723 -0.010909766 0.004543085 -0.13054222 0.030760191 -0.06326656
-0.11963623 0.031590465 -0.061564155 -0.029695757 0.095730186 -0.12262331 0.06439685 -0.10385654
0.019687606 -0.13498913 -0.106187865 0.05941869 0.085280165 -0.10930245 -0.08866746 0.02205006
-0.042750742 0.043862112 0.029178383 -0.13038848 0.06301381 0.049585715 -0.065468624 0.00037191057
0.06596342 0.03295954 0.0532185 -0.0008859187 -0.11022855 -0.07575174 0.09325851 -0.018736267
-0.054752793 -0.1352287 -0.10580484 -0.112497784 -0.13323921 -0.048428804 0.0828661 0.07904968
-0.06510244 -0.075442225 -0.015677607 -0.0195495 0.030824693 -0.11250026 0.09479907 -0.013148704
-0.030425858 -0.032746628 0.042336963 -0.054279108 0.036277212 0.09313395 -0.1385926 0.027909203
0.07424877 0.030456262 0.0395706 -0.093154885 0.09277782 -0.071628325 -0.00077411387 0.049962196
-0.09283462 -0.050168376 -0.09016525 0.05947314 0.0019909083 0.006627852 -0.009582231 -0.02726762
-0.11364265 0.030766886 -0.05383044 -0.0059818723 0.018469138 0.09532483 -0.03251051 0.02574268
-0.11394244 -0.014096889 -0.04583235 -0.12888281 -0.09661652 0.071367465 -0.11760367 -0.13414198
-0.092645235 0.0047675665 0.021309609 -0.054870795 -0.11792617 0.09031311 -0.06604049 0.05873657

network.2.bias f4 [32]
00000000: c47e 103d c703 373e d84e 6a3d 78c1 b0bc
00000010: 2606 cb3e a293 c53e e0f8 683e 5708 07be
00000020: 2566 813e 981a 423e 0b57 833b 40f6 d2bd
00000030: 2dc2 c63e c87b bc3d 09c4 503d 516e 893e
00000040: 4780 a73e 2bed 873d 0f1b b93e 2209 0e3e
00000050: 956f 593e ccb2 1e3e f358 853e 9879 07be
00000060: 1e65 09bd 31ea a93e 79c4 9bbd eb95 913e
00000070: 4da3 963e be9b eebd 3f62 8bbc a6c5 cabc
0.035277143 0.17872535 0.057204098 -0.021576628 0.39653128 0.38589197 0.22751188 -0.13186775
0.25273243 0.18955457 0.004008179 -0.10300875 0.3882002 0.09203297 0.050968204 0.26841977
0.32715055 0.06637033 0.36153457 0.13870671 0.21233971 0.15497893 0.26044425 -0.13229978
-0.0335437 0.33186486 -0.076058336 0.2843469 0.29421464 -0.11650799 -0.01701462 -0.02475245

network.4.weight f4 [1, 32]
00000000: 2876 5fbd e93d a53e 7afa 37bd cec3 9dbd
00000010: d519 8d3e f66c 993e f800 8e3e 65b4 e9bd
00000020: 2047 d83e a752 d03e a00f ecbd 35a4 aabd
00000030: ddfd af3e f347 08be 682c ecbd c3cc 913e
00000040: 89f8 b73e 52e9 c9bd 376e b23e bb7c d73e
00000050: e991 a73e 0f58 c03e f2f3 c03e 0989 07be
00000060: 87d2 fbbd 98ed b53e 8a68 1cbe a9c9 a43e
00000070: 2229 953e 0036 00be 54ab 21be 8018 49bc
-0.054556042 0.32273796 -0.044916607 -0.077033624 0.2755877 0.29965943 0.27735114 -0.11411361
0.42241764 0.4068806 -0.11526418 -0.08332101 0.3437337 -0.13308696 -0.11531907 0.28476533
0.35931805 -0.098589554 0.34849712 0.4208735 0.32728508 0.37567183 0.37686116 -0.13235869
-0.12296014 0.35532832 -0.15274253 0.32185104 0.29132944 -0.125206 -0.15788013 -0.012273908
